metamodelo_inic_ann.onnx (onnx, 11398 bytes, 3 tensors)

dense_1/kernel:0 f4 [80, 1]
00000000: db6c 2f42 b3c8 4c42 af69 2bc2 bedb e641
00000010: 73f1 17c2 ae97 2642 1925 f3c1 4387 2ac2
00000020: ba2d 33c2 7cd1 00c2 a897 d041 45d2 00c2
00000030: e1db e541 fb6e d641 a268 08c2 6dc0 d741
00000040: bac5 2dc2 0c5e ebc1 809c 1a42 8e94 1342
00000050: 6ace 4742 f6ad e4c1 d890 ebc1 d8d0 fd41
00000060: e16b 29c2 ea70 efc1 1750 12c2 e3de 9441
00000070: be63 48c2 dc43 21c2 a8da d741 19e4 4142
00000080: bcde 2d42 68ca 1e42 4a7d 09c2 4b84 33c2
00000090: 0021 11c2 62f1 1e42 8199 3c42 f645 22c2
000000a0: ec1d 3742 a203 ed41 e9d1 1042 2fab 1142
000000b0: 8058 24c2 28ac cdc1 5d57 0142 0148 25c2
000000c0: 4a58 4142 5281 2342 2244 0442 3a47 e1c1
000000d0: 6665 1842 6e8f d141 b57e 2bc2 f403 2042
000000e0: 8271 cb41 5f1c ce41 11d5 ca41 edf8 f641
000000f0: f84e 12c2 c27b ca41 6baa fd41 361b 34c2
00000100: bbeb eb41 afac ea41 b05a 1c42 c1e8 25c2
00000110: 67b0 2042 0fe3 04c2 06e8 1cc2 ac98 5ac2
00000120: d409 13c2 ee5e d3c1 15c1 4342 3664 da41
00000130: fb9b 0ec2 3ec5 4642 7570 2542 308f 10c2
43.856304 51.195995 -42.853207 28.857296 -37.98579 41.648125 -30.393114 -42.63209
-44.794655 -32.204575 26.07405 -32.20534 28.732363 26.80419 -34.10218 26.968958
-43.443092 -29.420921 38.652832 36.895073 49.951576 -28.584942 -29.445724 31.726974
-42.35535 -29.930134 -36.578213 18.608831 -50.097404 -40.31627 26.981766 48.47275
43.467514 39.697662 -34.372353 -44.879192 -36.282227 39.735725 47.149906 -40.56832
45.77922 29.626774 36.20499 36.41717 -41.086426 -25.70906 32.335316 -41.320316
48.33622 40.87629 33.066536 -28.159779 38.099022 26.195034 -42.873737 40.00386
25.430424 25.763853 25.354036 30.871546 -36.577118 25.310429 31.708212 -45.026573
29.490103 29.334318 39.088562 -41.4773 40.172268 -33.221737 -39.226585 -54.649094
-36.759598 -26.421352 48.938557 27.298931 -35.652325 49.69262 41.35982 -36.13983

dense/kernel:0 f4 [32, 80]
00000000: 72c6 10bc 8b54 543c 7655 74bc 46df 0ebb
00000010: e747 283c d4d7 1e3c 6c08 513c 6285 1dbb
00000020: 2234 243c 7e18 093d 796d 48bd 944d 93bd
00000030: 3c5c c0bb 5fa9 83bd 29b0 013b cbbf 533d
00000040: e512 d93b 64bc b5bb 854a 2d3c c1de 8a3a
00000050: 0af7 92bc 5dd8 1c3d ab17 e9bc 6b95 bd3c
00000060: b5ea 10bc 045b 95bc 63ed b6bb 390a be3b
00000070: 6859 243b 1f18 c73c 8582 87bc 7ad0 bd3b
00000080: e681 af3d 34a0 d2bb c60b 46bc e412 5c3d
00000090: 15e5 4bbc 9b8f bcbc 2b37 283b 45ac 2b3c
000000a0: d305 debc 474d a33c 7716 ea3b 29e2 f13b
000000b0: 04c5 e53b dcd2 e73b 7c1b 82bb 3f41 983b
000000c0: e780 af3b a315 f03c 47db 96ba e189 0abc
000000d0: c80e aabb 27f6 9ebe 940f f7bc 7c96 abbc
000000e0: 726b 993c 1815 80bd afb3 533c 62b3 d43b
000000f0: 7075 48bc de3a 8cbc 4506 2a3d e450 ae3b
00000100: ee6d 16bc fff9 503d 48a1 86bd 47d2 f43d
00000110: 5849 65bb 70e6 d8bb 0ac7 fbbb a1fc 393c
00000120: 8f38 c33c a0de 983d 94c3 fabd 6974 953c
00000130: a3e8 573c 0751 583b 2c74 b93c 8e1c fe3c
00000140: d194 5e3e de44 22bd 46e4 86bd d588 923e
00000150: e53b bf3d c3e6 0b3e 13b0 29bd 9507 c0bd
00000160: 047b 4bbe 569a c5be aa9f dabd 9298 3cbd
00000170: e689 43be c66e 5c3d 3ef3 4dbe b94b df3d
00000180: 6bd3 b9bd bb6e 8abe 7cfd c33d 914b 49be
00000190: 5a08 123e 1955 893e 7152 873e ff6c 50be
000001a0: f2ff 0a3e c11b 45be 65b2 29bc c927 333d
000001b0: 009c 01be 490c 663d ccd8 dbbd e120 38bd
000001c0: 905d 6a3e 0f01 c33d f3be 25bd 425d 50bf
000001d0: 237c f13c b2d4 843e 1e87 a93d 7e3c 74be
000001e0: e5c9 123d 629d 9b3e 11ad ef3b c2e5 cbbd
000001f0: 1664 2fbb e314 923e 3238 d63d 1f64 b6bd
00000200: 34b2 b63e 08cb 073e 3833 813d 0698 d03c
00000210: 0518 67bd abda 42be bd06 17be 043b 0f3f
00000220: 10d3 5b3d 03d5 513d 9174 82bc b829 003e
00000230: 1348 f5bc ec2b 973f e45f 34bf 9ba6 f0bc
00000240: edc5 b2bd c14b cd3b 6355 a0bc 6f8d 243d
00000250: bbbd d13e 5d17 ccbc 227f babe eeba 8b3c
00000260: 056b 9fbd 08f5 273f ea70 54bd daa7 d1bd
00000270: 51b7 05bf 8785 443e cce2 9d3e f4c5 9f3c
00000280: e700 3f3e 4aa6 90bc 42b6 b0bc ad4e 833e
00000290: 4db2 a73d 599c b13d b52a 223b b5d6 a5bd
000002a0: ecf3 10be cdc8 aabe 23fb 02bd 6480 ad3b
000002b0: 9064 fbbd a979 f63c 9d7f fdbd a9b6 023e
000002c0: f351 5abd 8ad6 f1be 63a4 263e 0cba 2abe
000002d0: 8beb 213d 8d63 463e a321 b63e a531 1fbe
000002e0: aafe 073e 39eb 11be 99aa d7bd 0995 8e3d
000002f0: 06b4 c1bd b437 463d aaac b0be bd15 38bd
00000300: 0a6c 243e 1a56 a53d 2ca4 40bd dd97 31bf
00000310: 8419 7c3e 57ad 573e f84b bc3c 7087 50be
00000320: bba1 c83c 1245 5e3e b971 5dbc ad16 bdbe
00000330: 3c77 523d e13d f73e b31c fa3c 3b67 40bd
00000340: 4ad1 be3e ab05 f53d fc55 333e 7232 d53b
00000350: 4448 1abd 11b6 d5bd 4383 c1bd 6154 d03e
00000360: 96fe a0bd 5f4d 85bb 46ba 753d 082d 703e
00000370: 22d7 dfbc 0d03 773f ceb9 09bf 0730 3fbc
00000380: 363d 3fbd 661e f33d 65c7 853c ab1c 553d
00000390: 0cc7 bb3e 4885 103d 1b0b 1fbf 446b 5e3c
000003a0: 91be 1fbd ddf7 3d3f 7493 803b d8d3 38bd
000003b0: 9c80 c1be d7c0 1a3e c19c 273f fb8e dfbb
000003c0: 8a5f 2e3d 065a 04bd 25c8 a5bc 5240 5ebc
000003d0: 42fc 3bbc 9f34 153c 4258 4a3d e0c5 12bd
000003e0: 7571 6cbc 782f 8cbc f372 22be fc96 e33e
000003f0: 5c5a 1f3c 108a 253c b66c 60bd 8b38 663f
-0.008836376 0.01295961 -0.014912954 -0.0021800562 0.010271049 0.009695012 0.012758356 -0.0024035801
0.010022195 0.033470623 -0.048932526 -0.07192531 -0.00587037 -0.06428789 0.0019788838 0.05169658
0.006624567 -0.0055461396 0.010576849 0.001059495 -0.017940063 0.038292278 -0.028453669 0.023142537
-0.008845021 -0.018231876 -0.005582498 0.0057995585 0.0025077704 0.024303494 -0.016541729 0.0057926746
0.08569698 -0.006427789 -0.012087768 0.053728953 -0.012444754 -0.023017695 0.0025667648 0.010478084
-0.027102387 0.01993431 0.0071437913 0.0073816967 0.0070120115 0.007074697 -0.0039705615 0.00464645
0.0053559425 0.029307192 -0.0011509442 -0.008455724 -0.0051897503 -0.31047174 -0.030158795 -0.02094578
0.018727992 -0.06254023 0.012921258 0.0064911107 -0.0122350305 -0.017117914 0.041509885 0.0053197015
-0.009181483 0.051019665 -0.06573731 0.1195417 -0.0034986343 -0.006619267 -0.0076836394 0.011351735
0.02383068 0.07464337 -0.12244335 0.018243985 0.0131780235 0.003300728 0.022638403 0.031019475
0.21736456 -0.039616458 -0.065865085 0.2862002 0.09337596 0.13662247 -0.041427683 -0.09376446
-0.19871145 -0.3859431 -0.10674985 -0.04604394 -0.19095573 0.05381658 -0.20112321 0.10903115
-0.09073528 -0.27037606 0.09569833 -0.19657733 0.14260998 0.26822737 0.26430085 -0.20354079
0.13574198 -0.19248869 -0.010357474 0.043739114 -0.12657166 0.05616406 -0.1073471 -0.04495323
0.22887254 0.09521686 -0.040465306 -0.813923 0.029478138 0.25943524 0.08277725 -0.23851201
0.035837073 0.3039351 0.0073143323 -0.09955932 -0.0026762537 0.2853156 0.10459937 -0.08905815
0.35682833 0.13261044 0.06308597 0.025463115 -0.05641939 -0.19028728 -0.14748664 0.55949426
0.05366808 0.051228534 -0.015924724 0.12515914 -0.029941594 1.1810279 -0.7045882 -0.029376319
-0.087291576 0.006265134 -0.019571966 0.040173944 0.40965065 -0.024913484 -0.3642512 0.017056908
-0.07784084 0.65608263 -0.051865496 -0.10237093 -0.52232844 0.19191562 0.30837095 0.019503571
0.18652688 -0.017657418 -0.021571282 0.25645962 0.08188305 0.08672399 0.0024744694 -0.08097593
-0.14155549 -0.33356324 -0.031977784 0.0052948464 -0.1227504 0.030087309 -0.12377856 0.12764992
-0.05330081 -0.47233993 0.16273646 -0.16672534 0.039531272 0.19373913 0.35572538 -0.15546282
0.1328074 -0.14249887 -0.10530586 0.0696202 -0.09458165 0.048392966 -0.34506732 -0.044942606
0.16056839 0.08073063 -0.047031567 -0.6937235 0.24619108 0.21062218 0.022985443 -0.20364165
0.024491182 0.21706036 -0.013515883 -0.36931363 0.051383242 0.48289397 0.030531263 -0.04697345
0.3726905 0.11963972 0.17513269 0.0065062577 -0.037666574 -0.10435117 -0.09448864 0.40689376
-0.078610584 -0.0040680612 0.059992097 0.23454678 -0.027324263 0.9648903 -0.5379914 -0.011669165
-0.046689235 0.118710324 0.01633043 0.052029293 0.36675298 0.035283357 -0.6212632 0.013575379
-0.039000098 0.74206334 0.003923828 -0.045123905 -0.37793434 0.15112625 0.6547356 -0.0068224645
0.042571582 -0.032312416 -0.020237038 -0.01356514 -0.011473717 0.009106784 0.049400575 -0.03583324
-0.014431347 -0.017112479 -0.15864162 0.4445113 0.009726133 0.010103717 -0.054791175 0.8993003

dense/bias:0 f4 [80]
00000000: 2967 88bf 4792 93c0 e56f 1fbf 8496 6ebf
00000010: 9224 1fc0 d730 87c0 8044 a0c0 a806 6340
00000020: 1a5b 2cbf a10f 1a40 3b90 be40 b0b0 2cc0
00000030: 8404 a840 75f0 9840 61eb 63c0 ce6c 2740
00000040: 792e 71c0 ebd5 45c0 1a87 7f40 a2c8 a740
00000050: 4f5b 1641 7732 04c0 9fcd b8c0 596e 9e40
00000060: 25a3 9ebf 3bb9 04c0 39d4 51c0 9854 cb3e
00000070: ed31 0d41 f79f 4240 a06b 8240 3dd5 d0c0
00000080: d778 ebc0 9512 83c0 f6d2 2cc0 94c2 1741
00000090: a604 8dc0 3037 67bf eeac 9f40 e5a7 503f
000000a0: 1865 cfc0 19d2 4940 c660 5fc0 a316 d53f
000000b0: 7950 8a40 f478 b0c0 21f3 9140 0d28 50bf
000000c0: 6dfe aebf 8c97 98c0 1d8b 9640 be15 3ac0
000000d0: 2718 0a40 fdea d440 7da9 5240 1b38 4dbf
000000e0: 0c6a 8140 87aa 8340 e358 96be 691f 9340
000000f0: 43f7 a43f a9e1 8240 48d0 9040 91fe 16c0
00000100: 4829 ae3f 324a 9540 ecd4 1ac0 3e3d 5f40
00000110: 53ef 85c0 eb19 15c0 c9a8 34c0 cd6e 0e41
00000120: 09c0 a7be b0f2 a0c0 e68a 00bf a8be 16c0
00000130: 559c 3abf ef8e a5c0 d1b5 35c0 677b 80c0
-1.0656482 -4.611606 -0.6228011 -0.9319842 -2.486607 -4.224712 -5.008362 3.5472813
-0.6732651 2.407204 5.9551063 -2.6982841 5.250551 4.7793527 -3.5612414 2.616016
-3.7684615 -3.0911815 3.992621 5.2432413 9.397292 -2.0655801 -5.7751 4.95097
-1.2393538 -2.0738056 -3.278578 0.39712977 8.824689 3.0410135 4.075638 -6.52603
-7.358501 -4.0960183 -2.700376 9.485004 -4.4068174 -0.90318584 4.9898596 0.81506187
-6.4810905 3.1534483 -3.4902816 1.6647533 4.3223233 -5.514765 4.560929 -0.8131111
-1.3671395 -4.7684994 4.7044816 -2.907577 2.1577241 6.653685 3.2915947 -0.80163735
4.044195 4.1145663 -0.2936469 4.5975842 1.2887958 4.0900464 4.525425 -2.3592875
1.3606348 4.665307 -2.4192457 3.488113 -4.1854644 -2.329707 -2.8228018 8.902051
-0.327637 -5.029625 -0.5021194 -2.3553867 -0.72894794 -5.173698 -2.8392222 -4.015064
